checkpoint_criticma.pth (torch_old, 18408 bytes, 7 tensors)

fcs1.weight f4 [64, 24]
000000 04 b7 9e bc 0f c8 18 bf c3 14 24 3d 06 e4 b6 3d
       -0.019374378 -0.59680265 0.040058862 0.08930211
000010 60 65 65 be 25 ca 47 3e 23 e5 38 bd 12 0a 62 bd
       -0.22401953 0.19510706 -0.045140397 -0.055185385
000020 4a ca ed bc ac 86 0a bf aa 7e 2f 3c 12 82 dc 3b
       -0.029027123 -0.5411174 0.010711351 0.006729373
000030 bf ba b5 bd 71 8f e6 3e ca f8 b6 bb fe 0f 5a bd
       -0.088735096 0.45031312 -0.005583857 -0.053237908
000040 0e 52 10 bd f9 de 07 bf 6b 15 4a bd 36 e9 ba bd
       -0.035234503 -0.53074604 -0.049336832 -0.09126513
000050 ae 87 13 3f 4c 5c a7 3f ed 06 24 3d 2e d0 07 be
       0.57628906 1.3075042 0.040045667 -0.13263008
000060 b2 71 41 be 88 4e 73 3e 6c 2d 07 bd 8a a5 ca bc
       -0.18891028 0.23760426 -0.033002302 -0.024737138
000070 86 c5 05 be ae fe 97 bf 02 91 57 3d 51 62 4c bd
       -0.1306363 -1.1874597 0.052628525 -0.04989845
000080 a3 72 c9 3e a8 10 61 3e 8f 56 8b bd e2 25 62 be
       0.39345273 0.2197901 -0.06803619 -0.22084764
000090 43 5a 4e 3e be 76 ac bf 30 12 1c 3d 0c 37 66 be
       0.2015162 -1.3473737 0.038103282 -0.22481936
0000a0 96 41 6f bd 5b 59 13 3e b9 8e 43 bd 53 8b 11 3f
       -0.058412157 0.14389555 -0.047743533 0.56853217
0000b0 0d 25 87 3e 7f 70 07 3f 27 a7 55 3d f5 79 ae 3e
       0.26395455 0.5290603 0.052161362 0.3407742
0000c0 d3 bd 58 bd ad 6e d6 3e 85 e3 ef 3d d8 6c 1c 3c
       -0.052915405 0.41881314 0.11713318 0.009547435
0000d0 4d 25 84 be 08 50 c4 3d ad 2c e7 bd 54 39 d0 3d
       -0.25809708 0.09585577 -0.11287818 0.101671845
0000e0 e5 e1 0e bd a8 8a cb 3e 00 78 05 bd d4 2e 14 3d
       -0.0348834 0.39754224 -0.032585144 0.03617747
0000f0 51 3d 02 bf 3c 30 ba bf 18 14 65 3d cb 57 92 bd
       -0.5087481 -1.454597 0.055927366 -0.071456514
000100 4e e8 12 be 19 b0 d7 3e 67 8d 97 3d a9 c9 1c 3d
       -0.1434643 0.4212654 0.07400017 0.038278256
000110 60 8d 11 3e 9a 89 1b bf 25 09 45 bd e9 ee 52 bd
       0.14214087 -0.6075684 -0.048104424 -0.051497374
000120 ba 87 9f 3d 0b 16 62 3d 57 36 86 3a 45 a4 eb bd
       0.0778956 0.055196803 0.0010239583 -0.11505941
000130 01 39 07 bf 29 39 a9 3e a1 4b ab 3c 4e ca 57 3d
       -0.52821356 0.33051422 0.020910086 0.052683167
000140 52 29 7f 3d 6d b9 b6 bd 84 c0 a0 bd 75 ed f4 bd
       0.062295265 -0.08922086 -0.078492194 -0.11959354
000150 07 d8 89 be fe 7f 63 3f 3e 58 b2 3d f8 9b 34 3c
       -0.26922628 0.88867176 0.08708237 0.011023514
000160 dd a2 87 3e 0c 70 85 3d c3 68 a5 bd 0f d0 98 bd
       0.26491442 0.06515512 -0.08076622 -0.07461559
000170 a8 b8 4f 3f 73 d9 e3 3d 1d 1c be 3d 12 ee 47 bd
       0.8114114 0.111254595 0.09282706 -0.048811026
000180 48 7c dd bd 8b b7 5a 3f 9f e6 23 3c e4 25 2e bd
       -0.108147204 0.85436314 0.010003715 -0.042516604
000190 f3 f1 29 3e b0 f1 03 bf 42 ee 1a bb c0 50 2e 3a
       0.16596203 -0.5154066 -0.0023640548 0.0006649606
0001a0 58 9c ac bd 3d fa 38 3f 90 ba ab bd 7f 30 91 bd
       -0.08428258 0.72256833 -0.08385193 -0.07089328
0001b0 e2 17 a4 3d a8 f4 50 bf e6 fd af 3d 0e 48 6b bb
       0.08012368 -0.81623316 0.08593349 -0.0035901102
0001c0 1d 61 7f bd 79 cb 62 3f 01 18 2d bd a6 e5 a2 3e
       -0.062348474 0.88591725 -0.04225922 0.31815833
0001d0 1a 28 ed be bf 5b b1 bf e1 93 9b bc 28 6c dc 3e
       -0.46319658 -1.3856124 -0.018991413 0.43051267
0001e0 a9 bf 13 3c c4 bb ed be ae 45 30 bd f6 63 61 bc
       0.009017863 -0.46432316 -0.0430352 -0.013756743
0001f0 6a 17 19 3d 72 84 47 bf 0f 0b 74 3d d5 44 31 3d
       0.037375845 -0.7793647 0.05958086 0.043278534
000200 36 ce 21 3d ec ed e3 be 9b 0f 8f 3d 67 96 fd bd
       0.0395033 -0.44517457 0.069853984 -0.123822026
000210 59 34 e5 bd c7 21 14 3e cc 94 3b bd bb 85 b5 3c
       -0.11191625 0.1446601 -0.0457962 0.022158494
000220 57 f1 ff 3e 4f 14 3c bf 1e d2 08 3d 3d ed 70 3d
       0.49988815 -0.7346849 0.03340351 0.058819998
000230 b2 b6 5b bd 77 f4 28 bf cf 02 eb bc d1 a1 81 bd
       -0.05364103 -0.65998024 -0.028687863 -0.06329692
000240 fc b2 17 3d 2c a9 45 be 23 92 8f bc b5 7f d7 bc
       0.037035927 -0.19302815 -0.017525738 -0.026306013
000250 5e e9 3f be fb ce 49 be 25 b8 99 3c be b2 1a 3d
       -0.18741366 -0.19707863 0.018764565 0.037768118
000260 91 5d e1 3e 53 dd 39 be dc c7 5d 3c 4b a5 b2 bd
       0.44016698 -0.18150835 0.01353642 -0.087229334
000270 cb 5e ae bd 92 36 b0 bf 4b b3 8a bc 89 b1 9c 3d
       -0.08514174 -1.3766654 -0.016931197 0.0765105
000280 70 10 26 3f ec d8 a9 be d2 5a 3c bd fa e3 b4 bc
       0.6486883 -0.3317331 -0.04598505 -0.022081364
000290 4e b5 00 bf 1e 03 c2 bf 04 83 8f 3d 00 b4 b7 3c
       -0.5027665 -1.5157201 0.07007411 0.022424698
0002a0 ff cb 4e bd 3a 48 25 3e 56 42 9e bd 1c 2e 6f 3e
       -0.050487515 0.16140833 -0.07727496 0.23357433
0002b0 2d 2e a7 3d be dc d4 3e 9c e6 9c 3d d7 72 95 3e
       0.08163104 0.41574663 0.07661173 0.29189178
0002c0 a5 df 40 3e 37 97 cf 3e 20 47 43 bd 33 c4 d1 3d
       0.18835314 0.40545055 -0.047675252 0.102425
0002d0 12 f4 88 3c 54 e0 d0 3e 7a 9d 04 3d 91 bc 7c 3c
       0.016717944 0.4079615 0.032376744 0.015425817
0002e0 0b 1e be 3e 6f 84 bf 3e fc aa 54 bb 13 e8 e4 be
       0.37132296 0.37405726 -0.0032450547 -0.4470831
0002f0 dc e3 a8 be 4f de 13 be 29 46 2e bc 6b 77 91 be
       -0.32986343 -0.14440273 -0.010636845 -0.2841142
000300 7c 47 6d bd c1 8d 30 be 9f ae d6 bc 15 96 4f 3d
       -0.0579295 -0.17241575 -0.026206313 0.05068024
000310 81 39 1f be 1e ed 2c 3f 81 6a 00 3d a9 fd 2e bd
       -0.1554928 0.6754931 0.03135157 -0.042722378
000320 cd 22 1f 3c c3 9a 55 3b 18 ec 10 bd 6f c8 57 bd
       0.009712887 0.0032593466 -0.035381407 -0.052681383
000330 e3 2c 6c be fd bd 7a 3f e0 65 14 3d b2 82 fd 3c
       -0.23063998 0.9794615 0.036229968 0.03094611
000340 66 f6 4a bd e4 bd 9a 3d 80 24 70 3c e1 70 01 be
       -0.04955139 0.0755575 0.01465714 -0.12640716
000350 5d f7 34 3f bf 92 01 c0 7c d7 04 bc f9 4a ac 3d
       0.70689946 -2.0245817 -0.008108016 0.084127374
000360 00 6f e8 3d c3 a4 5a 3f c6 10 e4 3c e3 cb b4 3e
       0.113492966 0.85407656 0.02784003 0.35311803
000370 b7 95 a6 3e f8 d3 a8 3e f2 1f 87 bb 47 e6 93 3e
       0.32536098 0.3297422 -0.004123681 0.28886625
000380 5b cd 2d 3e 69 6e 86 3f f4 92 98 bb b6 9f 27 3d
       0.16972868 1.0502445 -0.00465619 0.040923797
000390 cd b1 41 be 31 48 83 bf 21 c3 7c 3c 29 22 fa 3c
       -0.18915482 -1.0256406 0.015427382 0.030533867
0003a0 7c 49 45 3e d5 1b 68 3f 93 1a c6 bd 69 a5 57 be
       0.19266313 0.9066747 -0.096730374 -0.21059193
0003b0 63 51 1a bf 7d 6d d9 bf db 2f b7 3d 31 01 46 be
       -0.60280436 -1.6986538 0.089446746 -0.19336392
0003c0 fe 7c 4d 3e b0 03 fc 3d a5 9e 5e bd 8b 40 d4 bd
       0.20067212 0.12305391 -0.054350514 -0.10363873
0003d0 79 c4 de 3d 87 a8 b0 3e a9 4d 78 3d 66 9a 3b 3d
       0.10877318 0.34503576 0.060620937 0.045801543
0003e0 60 8b 5b 3e 3c 5d 88 3e 18 f0 a0 3d 8f 2f b0 3d
       0.21439886 0.26633632 0.07858294 0.08602821
0003f0 86 ea 0f be ec 24 32 3c b0 56 b4 bd dc 3d 88 bc
       -0.14054307 0.010873061 -0.08805597 -0.01663106

fcs1.bias f4 [64]
000000 47 06 88 bf 25 e4 18 bf 7a 7f 4d bf f3 ae 4c bf
       -1.0626916 -0.5972312 -0.8027264 -0.7995445
000010 99 f3 88 bf 86 19 8c 3f 78 fa 44 3f 17 7e e1 3f
       -1.069934 1.0945289 0.76944685 1.7616605
000020 26 33 dc 3e 8d 52 dd 3e 80 55 89 be bd fb 5c 3e
       0.43007773 0.43227044 -0.26823044 0.21580406
000030 7b be 25 3f f5 0b f2 3f 08 95 08 3f 02 1c 10 3e
       0.64743775 1.8909899 0.53352404 0.14073184
000040 56 af ad bf 0c 96 58 be 87 55 f0 be f7 f3 78 bf
       -1.3569133 -0.21150988 -0.46940252 -0.9724726
000050 d7 de ed 3e d9 e0 2b 3d cc d0 ca bf 7c 8d 5c bf
       0.46459076 0.04196248 -1.584497 -0.8615339
000060 f1 84 35 3f a4 e9 44 bf 11 4c 15 3e 63 7b e3 be
       0.7090598 -0.7691901 0.14579798 -0.44430074
000070 60 2c eb be 1d 16 15 be 65 00 40 3e d2 77 64 bf
       -0.45932293 -0.14559217 0.1875015 -0.8924533
000080 61 bc 13 bf c1 1f c5 be 33 e8 db be a4 dd bd bf
       -0.5770932 -0.3850079 -0.4295059 -1.4833264
000090 24 d9 da 3d bc 21 af bd 7c 45 4c be 11 5d b6 be
       0.106859475 -0.08551356 -0.19948381 -0.3561788
0000a0 d0 52 e9 3d c0 56 f4 3e 98 84 6b bf 17 95 6e be
       0.11392748 0.47722435 -0.91999197 -0.23299061
0000b0 36 60 0f bf d0 6a 90 3e 9f 6f 07 bf 71 48 9d be
       -0.5600618 0.2820649 -0.52904695 -0.3071933
0000c0 78 d9 08 3f 9e 40 85 3e 0d 67 b6 3c 6e b6 ef bf
       0.5345683 0.26025862 0.022265935 -1.8727548
0000d0 2a 02 2f 3f f3 77 94 bf 5d 20 2c bf aa 0f ed 3e
       0.6836268 -1.1599106 -0.6723688 0.46301013
0000e0 ac 01 19 be 78 85 07 3f 23 ee 35 bf 14 a4 6a 3e
       -0.14942044 0.5293803 -0.7106649 0.22914153
0000f0 17 e2 3d 3e 1b c4 60 bf a6 cf a5 bf 74 9e 61 bf
       0.18543278 -0.87799233 -1.2953994 -0.88132405

fc2.weight f4 [32, 66]
000000 29 7e bc 3c da 89 2d bc c1 ad 5f bc 6c 11 56 bf
       0.023009377 -0.010591948 -0.013652266 -0.83620334
000010 a6 f5 37 be f8 ee 0d 3e 04 33 d4 3d ca 9e 95 bd
       -0.17964801 0.1386069 0.10361293 -0.07305677
000020 e7 6b ad be e8 21 a9 be 05 a0 2d be 21 39 c2 3e
       -0.33871385 -0.3303368 -0.16955574 0.3793421
000030 de 01 c8 be a8 f4 ed 3c f4 77 ee bd 02 00 8a bc
       -0.39063925 0.029047325 -0.11643973 -0.016845707
000040 bc b0 83 3c cc 40 a2 3d c1 9d a9 bd 70 ab 08 bf
       0.016075484 0.07922515 -0.08282042 -0.5338659
000050 66 04 8e 3d 69 7d b7 bd 00 06 8e be 85 14 19 bd
       0.06934433 -0.08959467 -0.27738953 -0.037373085
000060 94 bb eb 3d c1 df 1f 3f 19 87 87 ba 58 b9 6f 3e
       0.11510387 0.62450796 -0.0010339945 0.23410547
000070 42 69 41 be 4c fa 39 bd 12 f0 e9 3c 9b db 84 be
       -0.18887809 -0.045404717 0.028556857 -0.25948796
000080 e8 e0 38 bd f1 42 20 3d de 6a 86 bc 4a 30 5a 3f
       -0.045136362 0.03912634 -0.01640838 0.85229933
000090 88 9a 3b 3e ca 3d 16 be a6 45 44 be 33 b9 f4 bd
       0.18320668 -0.14672008 -0.19167194 -0.119493864
0000a0 d5 b5 1a 3f ad 48 60 bf cc 52 ac 3d ab 8c 89 be
       0.60433704 -0.87610894 0.0841423 -0.26865134
0000b0 bb c4 ba 3d 83 2f cf 3d f6 69 b3 bc b4 98 f8 3d
       0.091195546 0.10116484 -0.021901112 0.12138501
0000c0 d8 92 e8 bd ae 8c d6 3b 84 ef ec bd 66 92 00 3f
       -0.11356133 0.006547532 -0.115691215 0.50223386
0000d0 6b 88 9e be 8e 06 a1 be 32 7e 1f bd a8 27 c3 3d
       -0.30963454 -0.31450313 -0.03893871 0.09529048
0000e0 b1 88 fe bf 1a 63 2e 3e a8 03 23 bd fe 2b 9f be
       -1.9885465 0.17029992 -0.03979841 -0.3108825
0000f0 18 57 31 be bc bf 68 3e 78 04 d4 bd 24 d8 20 3f
       -0.1731838 0.22729391 -0.10352415 0.62829804
000100 2b 71 4e 3f 7a 11 89 bc 78 79 4c bd 73 c8 df 3d
       0.8064143 -0.016731966 -0.04992053 0.109269045
000110 26 21 33 bf a9 ed 3f bf e7 d6 10 be 53 a6 9e 3b
       -0.69972456 -0.74972016 -0.14144479 0.0048416047
000120 18 fb b7 3d e7 6d d4 be 8a 73 00 bf 9b 04 f2 3b
       0.08983439 -0.414901 -0.501763 0.007385803
000130 9e e6 e5 be 9a 09 25 bf cf 96 20 bd f8 b8 f8 be
       -0.4490251 -0.64467776 -0.039206322 -0.4857862
000140 24 17 21 bd 8c 01 1d 3e 05 2d 64 bf 25 84 2c be
       -0.03932871 0.15332621 -0.89131194 -0.16847284
000150 5e 32 62 3c 98 d3 4a bf 9c 2e 87 bd 51 14 b5 bf
       0.013805954 -0.79229116 -0.06600687 -1.4146825
000160 cd 84 e8 be b9 83 92 3d 69 2c 54 bf 0f 68 bc 3e
       -0.4541382 0.0715403 -0.82880265 0.3679814
000170 f4 3c 59 bc 96 dc 27 3b ea 37 e8 be 9a bd 05 3d
       -0.013259161 0.0025613657 -0.4535516 0.03265152
000180 9e 21 95 3c 00 f0 1e 3d 7a 1b 22 be d3 e1 63 3d
       0.018204506 0.0388031 -0.15830794 0.055635285
000190 f3 df a9 bf 3a 7e 17 bf 3e 2a 7d 3d 02 7b d8 bf
       -1.3271469 -0.5917698 0.061807863 -1.6912539
0001a0 47 af 21 bd 69 fa d8 3d 18 e3 b5 3e df 47 d8 3d
       -0.039473798 0.10594637 0.3552482 0.10560583
0001b0 f9 03 77 3e dc 87 7c 3c e0 ca a5 3d 29 67 4f bf
       0.24122609 0.015413251 0.08095336 -0.81016785
0001c0 00 5d bc 3e f8 92 44 bf df 0c cd 3e 04 ce d3 bd
       0.36789703 -0.76786757 0.40048882 -0.10342029
0001d0 ad 96 c7 be dc 81 13 be 17 78 63 bd c2 0d 5a bf
       -0.38982144 -0.14405006 -0.05553445 -0.8517724
0001e0 6a 09 1b bf 4c e0 ca bd 3b 2c e6 3d 32 8c 54 3f
       -0.6056124 -0.099060625 0.11238905 0.8302642
0001f0 2c 73 cd be 60 82 9c 3d 1a 6f 03 3d 2c b8 cc bd
       -0.40126932 0.076420546 0.032088377 -0.099960655
000200 95 0e 0e be 37 62 62 bf 1f d2 9e bd 12 0d 12 3c
       -0.1387275 -0.88431114 -0.07754921 0.008914249
000210 22 97 b3 3e 8f db a3 be 93 2c 9d 3d 85 c2 e9 bc
       0.35076243 -0.32003447 0.076745175 -0.028535137
000220 1c 21 0d bf 05 96 0f bd 58 b3 87 3e 7c a4 03 3e
       -0.55128646 -0.03505518 0.26504016 0.12855715
000230 0d 99 ea be c7 23 23 bd 83 b6 df 3b 40 64 c5 be
       -0.45819893 -0.03982904 0.006827177 -0.38553047
000240 90 80 f6 bc 97 47 af 3d 2d cc a1 3d 8a 10 c1 3e
       -0.0300906 0.085585766 0.079002716 0.3770793
000250 ad 7b 56 be 44 84 5c be dc 8b 8b be b4 d1 2e 3f
       -0.20945616 -0.2153483 -0.27255142 0.6828873
000260 54 6d 02 be 42 ab 85 be 4e 95 69 3d e0 b5 e2 3e
       -0.12737018 -0.26107222 0.057027154 0.44279385
000270 96 24 bb bc 8d 7d a6 be de 3f 49 be f5 f9 fa 3e
       -0.022844594 -0.32517663 -0.1965327 0.49018827
000280 47 69 03 3f 75 65 e9 bc 82 d3 6d be d0 0d d6 be
       0.51332515 -0.028490761 -0.23225215 -0.41807413
000290 8e 90 9e 3d 47 37 45 3c 0e eb 09 3e 45 e0 dc 3e
       0.07742415 0.012037105 0.13468572 0.43139854
0002a0 7f 1e 6e bc 10 63 25 be 31 6c 21 3d ef 4f 72 be
       -0.014533638 -0.1615107 0.03940982 -0.23663305
0002b0 c9 2d 96 3e 62 25 4b bf 42 44 68 bf 9d da 03 bf
       0.29331806 -0.79353917 -0.90729153 -0.5150545
0002c0 1f 15 9f 3d e3 68 6e 3a d6 96 9b be 45 02 1f be
       0.077677004 0.0009094609 -0.30388516 -0.1552821
0002d0 5b 19 ee 3e e1 78 c9 3d 49 53 88 be 0f 9f ce be
       0.4650372 0.09837509 -0.26626042 -0.40355727
0002e0 f1 ef 35 3e 67 f0 13 3e c2 25 84 3e 55 f2 b3 bd
       0.17767312 0.14447175 0.25810057 -0.087864555
0002f0 c5 31 1d be 8b 88 a9 be 41 59 b6 3e 5d e3 11 bf
       -0.15351017 -0.33111987 0.3561497 -0.56987554
000300 ed 38 ff 3c b2 ea 81 be 46 a0 1f bf 10 d3 ef be
       0.031155074 -0.2537437 -0.6235393 -0.46840715
000310 07 e0 23 bf 50 9d 4b be fd e9 34 bf 59 e1 68 bf
       -0.64013714 -0.19884229 -0.7066954 -0.90968853
000320 fd a8 1d bd 91 f3 cd bf 40 59 10 be 1b da 23 bd
       -0.038491238 -1.6089956 -0.14096546 -0.040002923
000330 75 cc 2c bd 64 0a 0c 3e 1a ed dd bd 5f 9e 70 be
       -0.042187173 0.13675839 -0.10836239 -0.23497914
000340 ac 87 a7 3d e1 21 be be 48 b2 56 be 6c 32 06 3e
       0.08180174 -0.37135223 -0.20966446 0.13105172
000350 c5 7d 94 3c b0 d3 4d be 12 d2 c4 3d 09 47 27 be
       0.018126378 -0.20100284 0.0961038 -0.16335692
000360 71 86 91 be a9 0a bb 3f b4 54 68 3d cd 13 80 3d
       -0.28422883 1.4612628 0.056721404 0.06253777
000370 20 fa b3 3e 66 28 43 3f 37 2f 41 3d 28 e9 9a be
       0.35151768 0.7623352 0.04716417 -0.3025601
000380 da b8 ee 3c c5 f4 4e be 77 b4 14 be 60 1f b7 bc
       0.029140878 -0.2021056 -0.14521967 -0.022353828
000390 82 f4 55 3c 9c c3 35 bf 95 f7 34 be 22 46 7b 3d
       0.0130587835 -0.710016 -0.1767257 0.06134618
0003a0 f9 31 92 3f 38 4f cf be 0a aa 31 3d 0a 79 ce 3c
       1.14215 -0.40490127 0.043375053 0.0252042
0003b0 19 28 62 be 26 eb b3 bd 21 23 ea 3d b4 fc ad be
       -0.22085609 -0.087850854 0.114324816 -0.3398186
0003c0 24 05 86 bf 12 f3 6e be 66 ec 1c be 2c 03 5f 3d
       -1.0470319 -0.23334911 -0.15324554 0.054446384
0003d0 6c e4 ae be 64 b2 50 be 6a 3f ae 3f d0 95 4e be
       -0.34158647 -0.2038055 1.3613102 -0.20174336
0003e0 06 f4 3e 3e 43 4e af 3f 73 1d 71 be bc 1a 3f bf
       0.18647775 1.3695759 -0.2354639 -0.7465017
0003f0 32 a0 b6 be 04 13 a6 bd 38 60 46 c0 fc 60 d9 be
       -0.35669094 -0.08109096 -3.0996227 -0.42456806

fc2.bias f4 [32]
000000 f8 ac ca 3e ac 43 77 3e 30 25 2f 3f f4 69 66 3e
       0.3958509 0.24146909 0.6841612 0.22501355
000010 38 81 a1 bd bc 43 bd 3f 3b 5c 4a bf 1c 11 bb be
       -0.07885975 1.4786296 -0.7904698 -0.3653649
000020 d6 e8 28 3f 60 f3 59 be d2 17 cb 3f c2 fb e7 3e
       0.6598028 -0.21284246 1.5866644 0.45309263
000030 8f a4 fb 3e 44 b1 01 bf 6c 67 09 bd 4a 89 8c 3e
       0.49148986 -0.5066111 -0.033545896 0.27448493
000040 18 ca 56 3d 66 b7 35 3f 01 65 3f be 81 46 6b 3e
       0.052438825 0.7098297 -0.18690874 0.22976114
000050 fd 7f 15 3d 6a b9 af bf f7 ae 8f 3f 74 0c cf bf
       0.036499012 -1.3728459 1.122527 -1.6175675
000060 10 77 27 be 36 ee 0a be 5c 2d dd bc 2f f5 03 3f
       -0.16354012 -0.13567433 -0.026999168 0.51545995
000070 0f 1b 81 3a 6e 26 7c be 69 25 a1 3f 8a 12 8d 3a
       0.0009849983 -0.24624035 1.2589542 0.0010762971

fc3.weight f4 [16, 32]
000000 c9 21 5e bf f6 25 c2 3c f8 db c2 bd 83 c3 87 bf
       -0.867703 0.023699742 -0.09514612 -1.060654
000010 fe 89 16 be 29 63 e3 3d 8f 3f 37 be ff e4 eb bd
       -0.14701077 0.11102898 -0.1789534 -0.11518287
000020 d9 22 8b bd 75 b9 93 3d d1 99 49 be da 88 b2 3e
       -0.06793756 0.072131075 -0.19687583 0.34870034
000030 ff 75 d9 be 5f cc 88 3e 15 02 58 bf c5 c9 67 be
       -0.42472836 0.26718423 -0.84378177 -0.22635563
000040 45 09 df be 01 d9 fb 3d 31 9f a1 bf c6 d1 eb 3e
       -0.4356176 0.122972496 -1.2626706 0.46058482
000050 cb e1 f0 be 46 0c 01 bf 09 f7 f6 3d 0b 6e 07 be
       -0.47047266 -0.5040935 0.12058837 -0.13225572
000060 35 14 31 be a6 53 c6 bc cb f1 04 3e 8d 77 02 3e
       -0.17292865 -0.024209809 0.12982862 0.12740918
000070 4f 12 68 be 92 aa 24 3e 8f 43 2f 3c 7f e5 0b 3f
       -0.22663234 0.16080692 0.01069726 0.5464706
000080 97 b0 c3 bc 93 ea 87 bf cc a0 a3 bf 06 6b b6 3d
       -0.023887916 -1.0618461 -1.2783446 0.08907132
000090 a6 a7 cb bf 19 ea 55 bb 3f 82 ae 3c b0 d9 1c bc
       -1.5910537 -0.0032640754 0.02130234 -0.009573385
0000a0 e9 44 05 be 95 cf 3c bd eb 24 81 3e e7 13 54 bf
       -0.13014568 -0.046096403 0.2522348 -0.8284287
0000b0 62 c7 34 bf 73 1a 48 3e c3 87 03 bf 65 1b 28 3c
       -0.70616734 0.1954134 -0.5137903 0.010260438
0000c0 0c 1c 93 bc 11 64 8c bc c4 9e 1c bf 34 d9 e0 bf
       -0.01795771 -0.01713756 -0.6117976 -1.7566285
0000d0 cd a6 99 be 00 d3 5c bc 8b 67 5a bf 84 6b 4f 3d
       -0.3001007 -0.013478041 -0.85314244 0.050639644
0000e0 35 93 f9 3d 01 ed 0b bf 39 65 a7 bc fa 30 1d 3f
       0.12186281 -0.54658514 -0.020434009 0.6140286
0000f0 18 73 7a bf 8f 3b 26 be 61 25 b5 3e e0 8c 33 3e
       -0.9783187 -0.16233657 0.3538008 0.17534208
000100 60 61 ea bd 69 b0 78 3d 75 57 55 bf 09 f2 e4 bc
       -0.11444354 0.060715113 -0.83336574 -0.027947443
000110 11 d1 4c 3d d0 2d fd 3d dc 0b 27 be 84 ba f8 3d
       0.05000407 0.12362254 -0.16313118 0.1214495
000120 af d7 96 be ae fb 95 be da 04 32 be 8a 03 dd bd
       -0.2946143 -0.2929358 -0.17384663 -0.10791691
000130 9f 03 02 3d f4 f6 39 3d b5 59 ed be 92 39 b0 bd
       0.031741735 0.04540153 -0.46357504 -0.08604731
000140 07 b6 87 bd 3b 81 2e be 7e 6a 04 3e 1d cc 88 bc
       -0.06626516 -0.17041485 0.12931249 -0.016698891
000150 df 3b 12 be 8d b6 84 bf 90 a6 ae 3c 99 c1 6b 3e
       -0.14280652 -1.036821 0.021319658 0.2302307
000160 9b 7c 04 be 9c 5c 0e bd 56 af 96 3d 13 0a 34 be
       -0.12938158 -0.034756288 0.073576614 -0.17581968
000170 fc 88 c9 bd 9f 31 80 3e 6a f8 2e be e7 2c d9 be
       -0.09840581 0.25037858 -0.1708695 -0.4241707
000180 7a df cd bd 8e 52 36 bf 05 f9 8d be ef 4a e1 bd
       -0.100523904 -0.7121972 -0.2772905 -0.110006206
000190 a2 ca 05 bd 09 d8 b3 3d 24 df 41 be ab 81 04 3e
       -0.03266395 0.0878144 -0.18932778 0.1294009
0001a0 a2 29 8c bf 04 95 8c bc 02 5a 0f bc 5e 8e db be
       -1.0950205 -0.0171609 -0.008749487 -0.42882055
0001b0 a8 b6 3c bc 4a e0 1c bf 6f 9b b2 bf 19 7d 6d 3e
       -0.011518158 -0.6127974 -1.3953685 0.23192252
0001c0 5c 96 15 bf 88 4f 9a 3d d0 af 05 c0 9c e3 bc bf
       -0.58432555 0.07534701 -2.0888557 -1.4756961
0001d0 22 9a 04 bf d6 88 ed bf da 8b 03 bf 41 27 1c bd
       -0.5179769 -1.8557384 -0.5138527 -0.038123373
0001e0 8c 6d 3f 3e 3b af ca ba 80 cb eb 3d ff 58 56 bf
       0.18694133 -0.00154636 0.11513424 -0.8372955
0001f0 7d 5f 6a be 00 9b 04 bf f2 16 47 3a db 2b 74 be
       -0.22887988 -0.5179901 0.00075946667 -0.23844855
000200 a5 ae 0b 3d 4d 2c 8a 3d 93 86 83 3b 88 9e 1d 3e
       0.0341021 0.06746731 0.004013845 0.15392506
000210 d9 b2 4b 3b 1b 35 34 3e f7 05 03 be 37 6b a6 3d
       0.0031081943 0.17598383 -0.12795244 0.08125918
000220 e9 6b a3 be 3d 30 bf 3c a0 a1 1a be a5 84 d8 bd
       -0.31918266 0.023338431 -0.15100718 -0.10572175
000230 f4 57 55 be 64 13 ef bd 1e b8 9c bf ec 10 1e be
       -0.20834333 -0.1167362 -1.2243688 -0.15436143
000240 ea b3 82 be 6d ff ff 3d ab 1d 1f bf b7 63 66 3d
       -0.2552789 0.124998905 -0.62154645 0.05624744
000250 81 e0 b9 be 43 91 67 bf 2e e9 91 3d 47 9b 88 3e
       -0.36304095 -0.90456027 0.071245536 0.26680967
000260 1c e9 f8 3d 80 7e 93 3d 0d 4d 23 be 6b 03 31 3c
       0.12153837 0.07201862 -0.15947361 0.010804038
000270 00 86 8e 3d eb 92 bd 3e db 74 05 bd 73 07 c5 3e
       0.06959152 0.37026152 -0.032582145 0.38482246
000280 41 0c c0 3b b0 22 ce be 41 f4 bc bd a4 41 fa bd
       0.005860836 -0.4026084 -0.09226275 -0.12219551
000290 9b 67 e2 3d 21 fa 1c bd 96 4d 95 be 83 a4 6e be
       0.110549174 -0.03832448 -0.29160756 -0.23304944
0002a0 9f 34 f2 be 15 f7 cc be 43 39 42 bc cd f0 a3 3d
       -0.47305772 -0.4003226 -0.011854473 0.080049135
0002b0 3b f2 7f be d1 a4 18 3e 56 db 8a bf 9c 84 96 bd
       -0.24994747 0.14906622 -1.0848186 -0.07349512
0002c0 04 87 81 be 85 05 90 3e 36 b2 1d bf 9d 7b d7 be
       -0.2529832 0.2812921 -0.61600053 -0.42086497
0002d0 69 a6 0a 3e 88 05 85 bf 64 2b 8a 3e 0d f6 32 bf
       0.13540043 -1.0392313 0.2698623 -0.69906694
0002e0 b2 33 b2 3d 25 eb ee be 6e 0c 4c 3c ae 45 b0 3e
       0.08701266 -0.46663776 0.012454135 0.3442816
0002f0 44 0c 49 3e 06 d0 4a bf 27 c8 0e 3e a4 dc 8d be
       0.19633585 -0.7922367 0.1394354 -0.27707398
000300 b9 cf b6 3c 9e a7 d2 3e b7 0e 92 bd 54 25 38 be
       0.022315847 0.41143507 -0.07131713 -0.1798299
000310 49 79 9e 3d e0 bb 04 3e eb f2 73 be a3 50 0f be
       0.07737977 0.12962294 -0.23823135 -0.13995604
000320 38 6d cc 3d f6 91 f7 be 21 2d 42 3e a7 47 36 3e
       0.09981769 -0.48353547 0.18962528 0.1780077
000330 1b 0d c6 be 19 e8 c2 3d 72 46 38 bf e6 1c a1 bd
       -0.38681874 0.09516925 -0.7198249 -0.0786684
000340 f8 17 13 bf 7c 03 c5 3d 24 64 09 3e e4 06 e8 3d
       -0.5745845 0.09619805 0.13417107 0.11329439
000350 f6 c0 ed be b2 e6 fd bf 11 7d 6a 3e d8 91 e3 be
       -0.4643628 -1.9836028 0.22899272 -0.44447207
000360 45 b7 76 3c 91 86 01 bf 7f c5 2e be ad b8 d7 3e
       0.015058343 -0.5059596 -0.17067526 0.42133084
000370 11 ef a6 3d 66 85 7e 3e 66 d4 44 3e bc a5 b7 3d
       0.08151067 0.24855575 0.19221649 0.08967158
000380 44 71 67 be 4c a6 6d bf 24 1a fe be 6b e0 a3 be
       -0.22601801 -0.92831874 -0.4962932 -0.32007155
000390 88 cd d7 bd 20 9a 29 3e 53 19 57 3d 6b 47 89 bf
       -0.10537249 0.165627 0.052514385 -1.072492
0003a0 37 ee b8 3c 50 b1 92 be 0d d1 72 3e b8 d2 dc bd
       0.022574527 -0.28650904 0.23712559 -0.10782379
0003b0 cc 1a 0b bf ac 0c 81 3d f1 ca 97 bd 62 10 4c 3e
       -0.54337764 0.06301245 -0.07411755 0.19928125
0003c0 cf 9b 37 bc 3d 0a bd bd 98 60 08 be 5f 3e dd be
       -0.011206581 -0.092304684 -0.13318098 -0.43211648
0003d0 15 da a8 3e 51 a2 a8 bd c9 cc a1 bd d9 3d c0 3e
       0.32978883 -0.082340844 -0.07900388 0.37547186
0003e0 c7 cf f7 bd d8 72 35 3e 74 69 0d be f3 46 1c 3f
       -0.12100177 0.1771959 -0.13809758 0.6104576
0003f0 86 05 47 bd d9 73 1a bf b0 81 bc be 98 7c 9e 3d
       -0.048589252 -0.6033302 -0.36817694 0.07738608

fc3.bias f4 [16]
000000 50 c7 4f 3e ca 16 a2 3e a2 6a 4a 3f 63 f2 cd 3e
       0.20290875 0.31658012 0.7906896 0.4022399
000010 b4 dd e5 3e 9c 17 95 3d c5 f2 b2 3e db c6 ab 3e
       0.4489571 0.07279894 0.34950843 0.33550152
000020 8b 5c 26 3f 77 65 d2 be 92 d5 25 3f ef 60 c7 be
       0.6498496 -0.41093037 0.6477901 -0.38941142
000030 f6 ad 20 bd f7 57 13 bf d8 0c b6 3e 4f 5e d2 3e
       -0.039228402 -0.575561 0.35556674 0.41087577

fc4.weight f4 [1, 16]
000000 17 dc da bd 3f a4 c2 bd 87 65 15 bd f5 5a 28 3c
       -0.1068651 -0.09503984 -0.036473777 0.010275592
000010 84 77 08 3d 96 08 38 3d 2d 38 2c bd c4 0e e3 bc
       0.033317104 0.044930063 -0.04204576 -0.027717002
000020 c8 fe 5a 3d 12 20 ab bc a5 fe 44 3d 38 c7 be 3d
       0.053465635 -0.020889316 0.04809441 0.09315342
000030 41 e2 37 bd 09 cf a5 3d 4b 5b 46 bd 0c fa 1f bd
       -0.044893507 0.080961294 -0.048426908 -0.039056823
