checkpoint_actorma.pth (torch_old, 15998 bytes, 6 tensors)

fc1.weight f4 [64, 24]
00000000: 3a24 8ebd cca6 d0be d232 b8bc aa48 ef3b
00000010: 3d4f 90bc a33e 00be 78e9 f2bc a7d6 62bd
00000020: 3b1e c9bd 391d b8be 84a0 a7bd 3977 01bd
00000030: 36c8 19bd acda 5e3d 168d 8a3d fbe2 273e
00000040: d66c 20bc ae41 9fbe f6bc 303c f031 a63d
00000050: 294b 67be 0a05 e23e 94f0 793d ce2c bcbd
00000060: e687 17be 8be2 10bd 808a cb3d a714 1abe
00000070: a501 7bbd b392 503d fd70 78bd 7c6c f73c
00000080: ded7 213d 37d9 7dbe 452b 6d3d ca36 653d
00000090: 187a 923d d3b0 993e ce11 ff3b 5c78 6d3d
000000a0: 3a23 cebd e79d c0bd ce28 683d 3628 5e3e
000000b0: e5e8 1b3e 575f 1a3f 58d7 583d 44de 123e
000000c0: 8644 09be f37a 9b3c 3a0e 5c3d d130 493d
000000d0: ca2d 37bc 28b5 1e3d 845a 383d ca61 1bbe
000000e0: 648b 4ebe 497f 75ba 88fb db3d 2494 9f3d
000000f0: b5b6 c73c caba dabd 5942 0b3d c462 7dbd
00000100: f7a3 b7bd 036a 7d3c 87f8 2f3b 3544 52bd
00000110: 74f6 c03c 7325 0cbe 64a1 aa3d 6a9d cdbd
00000120: b231 ebbd 20f5 f03c c671 45bd dec3 66bd
00000130: 5051 04bb 63f1 6dbe 4c02 6f3d 4492 1c3e
00000140: 8d0f e5bd cd9f 213e e5d7 c6bd 40b8 aa3d
00000150: d81b 063e a185 043e 6d00 d1bd 6ad3 a5bd
00000160: a318 1dbc a0b8 893d 5733 8b3e 6a6a 7fbd
00000170: 5a99 203e 1e11 163f 1600 503d fff1 13bd
00000180: f4a2 7dbd 91b3 2bbe d50a 683d 02b9 debd
00000190: fb98 2abe 4610 74be 0849 1a3e 1a6b ea3d
000001a0: 4103 09bd 13f8 5dbe eed9 923d 7295 0d3e
000001b0: ac0e 583d 44ba eebc 9d74 343e 6d85 abbc
000001c0: 2bd5 d23c e050 d6bd f066 4bbd bb27 0c3d
000001d0: ce1b 973e 44fd 4d3e 1683 b53d fef0 2e3d
000001e0: c5a6 6ebe a5a6 94bb 48d4 e83c bedd 98bd
000001f0: 70f2 97be 0fc6 e0bd 0894 bb3c 6df2 36bd
00000200: 1e34 e5bd 822d 0c3d 3191 293d 4834 84bd
00000210: 79bf 57bd e730 f73d ab9e 363d 0cee 05be
00000220: 247a 7dbe d7ef b73c a95d 243e 0c68 9f3d
00000230: 5ef2 2bbd 9ee7 e53c d8cf 00bd 7e91 553e
00000240: 59a0 1abe 9eae 03be 0ea1 debb 7632 31bd
00000250: 5b3a 123e 3677 423e f2a2 3b3d be0c 1c3d
00000260: d45b debd 8511 a73b 76be 37bd 9ad9 ee3d
00000270: ce17 823d 0c6d 0cbd 5483 37bd 6939 fdbc
00000280: ba53 3dbe 34f1 55ba 2f07 743c afa6 34be
00000290: 3d89 1fbc b3e1 f6bd 7fa0 3a3e b20e 90bb
000002a0: 7022 d03d 5e56 a73d facf 523c e762 173e
000002b0: 4072 dc3d 99b4 693d 05a5 013d a8a1 81bd
000002c0: be76 9bbd ea50 ed3d a02a 113e 21fb 89bb
000002d0: c383 6a3d 88ea a6be 7c5a 653e fb8a 0d3e
000002e0: 1987 573d 2965 b53d e88a f5bc 90fd 8dbd
000002f0: 6f35 ff3c 3f50 f2be 31e9 c23d d15c f13d
00000300: b894 2cb9 dc1d 333e b08d f23d f876 81bd
00000310: 8c63 91be 36d6 3f3e 63a9 603d 33af 44bd
00000320: bbb1 373c 1b3d 543e 46ea 5ebd d3e7 52be
00000330: d3a9 e33c b91a f1bd 57da 2a3e 84d8 90be
00000340: 3935 1b3d 4d21 5f3e 631f 1b3d a474 39be
00000350: e5d5 533c 3633 d7be 7f90 a23d 2593 85be
00000360: 9644 f0bc 9305 9fbd d2ac 93bd 5b8d 8a3e
00000370: 646c 673e 5fa7 1cbe c44b 02be 54b0 613e
00000380: c22c 363d 710a 9dbd cc3b 4abe b0b5 543e
00000390: e8c8 5b3d 686e 3ebe c323 bb3c 959e bf3e
000003a0: 20d2 913d 7393 17bd e227 ccbb b058 c93e
000003b0: 0732 50be 93f2 803b 4d22 b43d 6226 cc3e
000003c0: af60 1e3d 149c fa3d 98a3 d3bc 6ceb 5e3d
000003d0: 0ab2 723d 6c5a afbe 9a66 803c 3c1b 703d
000003e0: faae 03be adb3 dcbd 5835 2c3d 3a63 aabb
000003f0: 88be 39be 6a2a 253e 3c6e eebc c873 ccbd
-0.069405034 -0.40752256 -0.02248517 0.0073023634 -0.017615909 -0.12523894 -0.029652342 -0.05538049
-0.09820219 -0.35959795 -0.08184913 -0.03160784 -0.03754445 0.05440776 0.06765191 0.1639518
-0.0097915735 -0.31104797 0.010787239 0.081149936 -0.22587265 0.4414447 0.06102045 -0.09188233
-0.14797935 -0.0353723 0.09938526 -0.1504694 -0.061280865 0.050921153 -0.06065463 0.030203097
0.039512508 -0.24789892 0.057902593 0.055960454 0.07152194 0.3001772 0.007784105 0.05797611
-0.10065313 -0.094051175 0.05667954 0.21695027 0.15225561 0.6030173 0.052939743 0.143426
-0.13405046 0.018979525 0.053724505 0.04911882 -0.011180351 0.038746983 0.045008197 -0.15174022
-0.20170361 -0.0009364975 0.10741335 0.077919275 0.024379114 -0.106801584 0.03399882 -0.06186177
-0.08966821 0.01546717 0.0026851015 -0.05133458 0.023555018 -0.1368616 0.08331564 -0.1003979
-0.11484088 0.02941376 -0.048204206 -0.056339137 -0.0020190068 -0.23236613 0.0583518 0.15290171
-0.11184607 0.15783615 -0.09709147 0.08335924 0.13096559 0.129416 -0.10205159 -0.08096965
-0.009588393 0.067246675 0.27187607 -0.062357344 0.15683499 0.5861987 0.050781332 -0.036119457
-0.061922982 -0.16767718 0.056650955 -0.10875131 -0.1665992 -0.23834333 0.15066922 0.11446209
-0.03345037 -0.21676664 0.07170473 0.1382654 0.052748367 -0.029141553 0.1762261 -0.020937646
0.025736412 -0.104646444 -0.049658716 0.034217577 0.295134 0.20116144 0.08862893 0.042710297
-0.23305805 -0.004536467 0.028421536 -0.07464169 -0.29677153 -0.10975277 0.022897735 -0.04466479
-0.11191581 0.034223087 0.04139823 -0.06455284 -0.052672837 0.12069874 0.04458491 -0.13079089
-0.24753624 0.022453232 0.16051354 0.07783517 -0.041979186 0.028064545 -0.031448215 0.20856282
-0.1510023 -0.1285958 -0.0067941016 -0.043261014 0.14280073 0.18990788 0.045809694 0.03809809
-0.108573586 0.005098524 -0.044859372 0.11662598 0.06352197 -0.034283683 -0.04480298 -0.030911164
-0.1848897 -0.0008161247 0.014894291 -0.1764171 -0.00973731 -0.120547675 0.18225287 -0.004396283
0.101628184 0.0817077 0.012866968 0.14783822 0.10763979 0.057056997 0.031651516 -0.063296616
-0.07591008 0.11587699 0.14176416 -0.004210845 0.057254564 -0.32600808 0.22397798 0.13822548
0.052619074 0.088571854 -0.029973462 -0.06933129 0.031153409 -0.47326848 0.09517134 0.117852814
-0.000164586 0.17491859 0.11843431 -0.063215196 -0.2839626 0.18734059 0.05484904 -0.048018645
0.011211808 0.20726435 -0.05442264 -0.20596246 0.02779094 -0.11772675 0.16684853 -0.28290188
0.037892554 0.21790047 0.03787173 -0.18110901 0.012929414 -0.42031258 0.07937717 -0.26088825
-0.02932958 -0.07764735 -0.07210697 0.2706097 0.22599941 -0.15298222 -0.12724215 0.2203992
0.044476278 -0.07668007 -0.19749373 0.20772433 0.053658396 -0.18596804 0.022844201 0.37425676
0.07120156 -0.037005853 -0.0062303403 0.39325476 -0.20331584 0.003935167 0.08795605 0.39873034
0.038666423 0.12236801 -0.025834844 0.054423735 0.059251823 -0.34248674 0.015673924 0.058619723
-0.12859717 -0.10776458 0.04204306 -0.005199817 -0.18139088 0.16129461 -0.029105298 -0.09983021

fc1.bias f4 [64]
00000000: b383 9a3c 38c6 503d 4848 dfbb 0b4a 96bd
00000010: 5c90 973b 532e 833e d17b 87bd 0a8d 783c
00000020: 1721 2a3e 8865 d6bd 3df8 693e f4d9 823e
00000030: 95e2 df3c c1f0 e63c 685b c9bd 2fd4 7cbd
00000040: 8aa2 113d b016 e2bc 616c acbd 9172 923d
00000050: 2f34 bc3e 681b 473c f208 2bbd d65b bd3c
00000060: 05c0 b23e ffec f73d 0cdb 083e c489 a73d
00000070: 25dc 42be f673 093e 5a3c 553e 47b2 2bbe
00000080: 03ef 1ebe f705 403d 19bb 8f3e e9c7 afbd
00000090: 1f49 2a3e 669d af3d fe02 d3bd b92a c73d
000000a0: 9db9 8d3e 69a9 aa3e 4407 b93d 669f 753d
000000b0: 73c7 93bd 2cae 52be c3c9 673e dce1 8d3e
000000c0: 47ee b5bd 257e aa3d 1d0b 483d c2cd 863d
000000d0: 3c8f 14bc 329c acbe 67b7 103e de60 35bd
000000e0: 8d58 cc3e 87db 5e3e c5a2 b53c 1c2c 78be
000000f0: 1906 57be 8a9d 3e3e d34f 7abc e2b7 ad3d
0.018861627 0.050970286 -0.0068140365 -0.07338341 0.0046253633 0.2562128 -0.06615413 0.015170345
0.16614185 -0.10468584 0.22848602 0.2555691 0.027329722 0.028190972 -0.098318875 -0.06172579
0.0355554 -0.027598709 -0.08419109 0.07150758 0.36758563 0.01215253 -0.041756578 0.02311508
0.34912124 0.1210575 0.1336481 0.081805736 -0.19029291 0.13423142 0.20823804 -0.16767226
-0.15520863 0.04688069 0.28072432 -0.08583052 0.16629456 0.08574943 -0.10303305 0.097249456
0.27680674 0.33332375 0.09034589 0.059966467 -0.07215776 -0.20574254 0.2263556 0.2771138
-0.088833384 0.083248414 0.048838723 0.06582214 -0.009067353 -0.33712918 0.14132462 -0.044281833
0.3991131 0.2176343 0.022172341 -0.24235576 -0.2099842 0.18614784 -0.015277821 0.084823385

fc2.weight f4 [32, 64]
00000000: 2495 24be aa83 3bbe 910d 31bd d195 353e
00000010: 9617 833d aab0 e33d b847 41be 7b0b 083d
00000020: 15f5 133e 3fc7 dd3d bdba 7f3d 874a 4e3e
00000030: 2e2b 68bd 0d89 c8bd df3a 2ebe f291 3bbe
00000040: 5259 94bd 9a3d e0bd 8fad 84be c199 57bd
00000050: 28ef 833e e251 dabd 29f9 b4bd b0f5 393e
00000060: 34a7 f7bd fcfc 56bd 6ab1 02be be67 18be
00000070: 176d d23e 420f 053e 3e27 71bd 7499 40be
00000080: 489e 07be 441d afbd d91d 943e 8c71 a0be
00000090: 6156 423e cd86 4fbd 8075 4e3e 9e16 2a3d
000000a0: d908 36bd 79a1 a03c 5afa cd3d 3d72 8d3d
000000b0: 9c1b 6ebe 8fba 0f3e 3305 b8bd 4dcf 3cbe
000000c0: 47cf 413e 8c42 1abe 6152 87bd 8839 333c
000000d0: 22f5 593c eb99 dfbd 9353 8a3d d1df 9fbd
000000e0: 94dc dc3d 0de2 fc3d 42a0 0fbd dc5e 5b3d
000000f0: 42ba 57be 9f4c 813e 2345 823d da26 c83d
00000100: 2043 2e3e be70 1b3d 9c3f 6e3d 0afe dfbc
00000110: f831 463d a213 413e b6d9 9fbd 9f36 02be
00000120: 6ff6 393d a93f e73d afc9 8dbd 9658 da3e
00000130: 4377 09bd a909 cb3d 7941 c2be b6e1 5cbd
00000140: ea0b 58be 7950 b43d 1cdb 493d 2445 683e
00000150: 4568 823e 8800 083e d10f 22be 5ceb 183e
00000160: 812a 01bc 035c d83d 345c 4abd 7053 49be
00000170: 9924 3b3e 6ceb a3bd 960f a43d d083 fc3d
00000180: 9350 fbbd 45cc 17bd a47f f9bd 87e7 cbbd
00000190: a611 893e bd65 c0bc b128 ae3c 5994 49be
000001a0: 68ef 93bd 6db8 963e 1fb8 02bc c6bc 0a3e
000001b0: fbe6 b5bb 533d 1a3d c177 293b e64c 523e
000001c0: 5c4c 073e 0a69 c5bd fda3 43bc eab0 fcbb
000001d0: 49ed 993c 3436 1dbe 7615 cf3d c0f1 80bd
000001e0: 0af2 883e fa5d 103e cd04 cc3d 244a ab3c
000001f0: 9980 2b3e 438c 4d3c 29b9 c7bc 66ae abbb
00000200: 1844 babd 7cc4 bd3e be54 113e c8ec a9bd
00000210: 0c99 4fbd 2ca6 983e 82f5 0a3e e00b 033d
00000220: 03b6 86bd 226f a6be 7010 d73b 8e73 21be
00000230: f8e9 7ebe ebdb 8fbd 62d3 223e e5bc 503d
00000240: 3a79 38bd d54c 7b3e 2817 c9bd c9e1 10bd
00000250: d458 8d3e 152c 8d3e 9d07 183e 1cfe d4be
00000260: e2c3 09bd 89ed 113d 92bf 76be 529d 9ebe
00000270: 8bef 313e 681f a63d 58aa d83d d4be 963d
00000280: 6988 02be 41a0 77be 00d3 60bd 098d 5c3d
00000290: c247 7ebb 620b 58bd 96ca 60be ecf5 973e
000002a0: 53a5 bd3c 375f dd3b 0bd2 1b3d 88f8 953e
000002b0: 2735 97be b0bb 1bbe 730e 253e 6871 2d3e
000002c0: 2df5 02bc 55ca 423b 35a1 143c 5cc2 7f3e
000002d0: 1277 b23d 2298 4abd 564e 88bc 53d0 0f3e
000002e0: fa2a 08bc 3ebb 733d 359c 9d3e 0269 f73d
000002f0: 0907 283d 316c 3e3e 6876 a4bc d08c 4ebd
00000300: b13e 223e cdd1 123e e72d 3c3e 4da9 5e3d
00000310: a7e5 f23d 672a 04be f22c e8bb 5f51 e0bb
00000320: 8aab babd 3613 74be 0539 163e 9867 923e
00000330: 894c 92be 8535 48be 0024 40bd a60c 8dbe
00000340: a1d0 10be 2fab 133d a92a 393d 3521 983d
00000350: e16d d23c 436b 623e 7fe4 123e 5b69 eebc
00000360: 5ae7 603c 9dca b1bd 705d 3cbd 791d e9bd
00000370: 682b 13bf cbb6 d3bd a877 c7be 43a6 1f3d
00000380: 9e69 9aba 70ac 6b3e c078 4e3e a052 f13d
00000390: ae78 08be 8ef6 88be 35f6 a4bc 1ba7 b33e
000003a0: 9fa4 75bc 4e70 293e a8da c73c 3c15 463d
000003b0: 265e a6be a98c e8bc 7660 6e3e 2cec 973e
000003c0: eac6 4ebe c7f8 9ebc 0f35 f23d 321a 7f3d
000003d0: 55d9 0e3e 0f2a 3f3e 92ea 0ebe fd08 923e
000003e0: 0001 bbbb 8856 07bd 783e c23d 40ff efbd
000003f0: cf59 423e 449c 2b3e e72e b7bd f11d 4cbe
-0.16072518 -0.18311945 -0.04322583 0.17732932 0.06400983 0.1111768 -0.18875015 0.033214074
0.1444896 0.10829019 0.062433947 0.20145617 -0.056681804 -0.09791765 -0.17014645 -0.18317392
-0.07243599 -0.109492496 -0.25913665 -0.052636866 0.257684 -0.10660149 -0.08836586 0.18160129
-0.12092438 -0.05248736 -0.1276299 -0.14883325 0.41098854 0.12994102 -0.058875315 -0.18808538
-0.13243973 -0.08550504 0.28929022 -0.3133663 0.18978263 -0.050665665 0.2016201 0.041525476
-0.04444203 0.019608246 0.100575164 0.06906555 -0.2325272 0.1403601 -0.08985367 -0.18438454
0.18926726 -0.15064448 -0.066075094 0.0109390095 0.013303073 -0.109180294 0.06754222 -0.078063615
0.107842594 0.12347803 -0.035064943 0.05355726 -0.21067145 0.2525377 0.06360843 0.09773035
0.17017794 0.037949316 0.05816613 -0.027342815 0.048387498 0.18855146 -0.07805197 -0.12716149
0.045401033 0.11291439 -0.06923234 0.4264571 -0.033561002 0.09913952 -0.37940577 -0.053926192
-0.21098295 0.088044114 0.049281225 0.22682625 0.25470176 0.13281453 -0.15826346 0.14933532
-0.007883669 0.10564425 -0.049404338 -0.19660735 0.1827568 -0.080038875 0.08010785 0.12329829
-0.12271228 -0.03706004 -0.12182549 -0.0995627 0.26771277 -0.023486013 0.021259638 -0.19685496
-0.072233975 0.2943758 -0.007978468 0.13548574 -0.0055512167 0.03765614 0.0025858732 0.20537147
0.13212723 -0.09639175 -0.011940953 -0.0077115195 0.018789904 -0.15352708 0.10111515 -0.0629611
0.2674716 0.14098349 0.09961853 0.020909376 0.16748275 0.012545648 -0.024380283 -0.005239296
-0.09095019 0.37063968 0.14192483 -0.082971156 -0.050683066 0.2981428 0.13570216 0.031993747
-0.06577685 -0.32506663 0.006563239 -0.15766737 -0.2489394 -0.07024368 0.15900949 0.050961394
-0.045037486 0.24541028 -0.0981887 -0.035371576 0.27606833 0.27572694 0.14846654 -0.4160012
-0.033634074 0.03562692 -0.24096516 -0.309794 0.17376535 0.08111459 0.105793655 0.07360616
-0.12747349 -0.24182226 -0.054888725 0.05384544 -0.0038800095 -0.05274523 -0.2195228 0.2967981
0.023150122 0.0067557353 0.03804211 0.29291177 -0.2953274 -0.15208316 0.16118793 0.16937792
-0.007993025 0.002972265 0.009071638 0.24976486 0.08714117 -0.04946149 -0.016638916 0.14044313
-0.008311028 0.05950474 0.3078324 0.120805755 0.041022334 0.18595959 -0.020075992 -0.050427258
0.15844227 0.14337845 0.18376885 0.054360677 0.11860209 -0.129068 -0.007085436 -0.0068456377
-0.0911475 -0.23835453 0.14670189 0.2859466 -0.28574017 -0.19551666 -0.046909332 -0.27548712
-0.14142086 0.036051925 0.0452067 0.07428209 0.02568716 0.2211123 0.14344977 -0.029102972
0.0137270335 -0.086812235 -0.045987546 -0.113825746 -0.5748811 -0.10337599 -0.38958478 0.03897692
-0.0011780744 0.23014998 0.2016325 0.117833376 -0.13327286 -0.26750606 -0.020136932 0.3508843
-0.014992862 0.16546747 0.024396256 0.048360094 -0.32493705 -0.028387384 0.23278984 0.29672372
-0.20193067 -0.019405736 0.118265264 0.06228084 0.13950093 0.18668388 -0.13956669 0.28522483
-0.0057069063 -0.033041507 0.09484571 -0.11718607 0.18979572 0.1675883 -0.08944493 -0.19933297

fc2.bias f4 [32]
00000000: d183 c03d c05d 683e 3574 08bb e25b 043e
00000010: 3f00 463d baaa 2f3e 0821 573d 4388 07be
00000020: 8b0d 623e c0cb 11bd dbad 20be 17ed 003e
00000030: a1a9 99bd 4dce 06be 7ad4 56be 41ba 6d3d
00000040: 492b 703e bd47 533e e4ea e83d 617c 293e
00000050: ec00 5dbd 0435 853c c565 d43d 6955 3e3e
00000060: da73 69bc 1a64 e8bd d549 83bb 5d85 b93d
00000070: b1ef 84bd b998 083d 00be ac3d eeee 66be
0.09400142 0.22692013 -0.0020821218 0.12925676 0.04834008 0.17154971 0.052521735 -0.13235573
0.22075479 -0.0355947 -0.1569132 0.12590443 -0.07503057 -0.13164635 -0.20979491 0.058038954
0.23454012 0.20632835 0.11372927 0.16551353 -0.053955957 0.016260631 0.103709735 0.18587269
-0.014248813 -0.11347218 -0.004006604 0.0905864 -0.0649103 0.033348773 0.08434677 -0.22552082

fc3.weight f4 [2, 32]
00000000: 6f00 163e 4f00 f13d a0c9 95bd 3a98 673e
00000010: 7c24 02be 6af9 17bd ae77 c8bd 2926 3abe
00000020: 9fe1 c9bc 0ac2 23be a3ef 2cbe 44de fe3d
00000030: b3cc e5bd 81cf 1dbf 61ae 6ebd 5f6b 0e3e
00000040: 6999 fa3d 4e9e 263e 6067 983e b957 623d
00000050: db88 32be 159a b8bd 18d7 9abd 64c3 373f
00000060: 1458 2cbe 0aee 96bd 701f 27bf 599a 793e
00000070: 890e 13be a318 153e 5566 853e 71d4 2abe
00000080: 5cf7 c53d a5d2 dcbd d000 193f 83d6 573f
00000090: e969 74be de01 1cbf 58c1 ecbd 7a02 0bbe
000000a0: 5b94 42bf a2f9 43bd d1f0 04be 583f d9bd
000000b0: 5526 bb3d 13ed 453f 197f 053e bac3 2e3d
000000c0: 0c28 b13d ee12 87bc 8907 883e 16a9 cebe
000000d0: 64c6 173d 302e 7ebd f539 9dbd 0fc5 a33e
000000e0: d23d 793c d5d6 bc3d b92d fdbd 8a5b 963c
000000f0: c180 083c ddbe 183e c5e6 18be ddad 2a3e
0.14648603 0.11767637 -0.073138475 0.22616664 -0.1270923 -0.037103094 -0.09788452 -0.1817862
-0.024643717 -0.15991989 -0.16888289 0.124447376 -0.11220684 -0.6164475 -0.05827177 0.13908146
0.12236292 0.16271326 0.2976637 0.05525944 -0.17435019 -0.09013764 -0.07560557 0.7178252
-0.16830474 -0.07369621 -0.65282345 0.24375285 -0.14361013 0.1456018 0.26054636 -0.16682602
0.09666321 -0.10782365 0.59766865 0.84311694 -0.23868527 -0.6094035 -0.11560315 -0.13575163
-0.7600762 -0.04784549 -0.12982489 -0.10607785 0.09138171 0.7731487 0.13036765 0.04266713
0.086502165 -0.016488519 0.2656825 -0.40363377 0.037054434 -0.062055767 -0.0767707 0.3198628
0.015212493 0.092206635 -0.123622365 0.018354196 0.008331479 0.14916559 -0.14931782 0.16667886

fc3.bias f4 [2]
00000000: d6ea 283e 8521 4cbe
0.16495833 -0.19934662
